data.pth (torch, 5079 bytes, 6 tensors)

l1.weight f4 [8, 55]
00000000: d754 96be 6daf 123f f4d8 22bd 3d39 613f
00000010: 7227 c83e 90a1 9c3e 731b d6be a147 1b3d
00000020: 1f0f 4cbd ac11 e23e 7dd2 32be 4b9f d43e
00000030: 2e81 0d3f 363a 9b3e e6cc 2f3f 55ef db3e
00000040: 55ba f53e df04 dc3e 5deb d6be bc8a 133d
00000050: 09eb 3b3f 1828 02be 7a40 153f cc73 e73e
00000060: e817 eb3e f500 ef3e 1dc3 9f3e 9693 0ebe
00000070: 9cf7 803f 6f9d ac3c 85cc d93e 6b4e 82be
00000080: 7629 2a3f 8433 8ebe 86c9 35bd 2e04 483f
00000090: 42d6 003f bdb1 1fbe 04f6 903e e1b2 703c
000000a0: 8dff e63d 25ec 59be ab75 6abd 26cd af3e
000000b0: 149d 1b3f 1b39 173f 068c 293f 2d22 0fbf
000000c0: 6fd9 01be 1f12 aa3e 7cbd 59be b38e cc3e
000000d0: 4c39 eebd b098 8f3d ad53 abbc a75a b93c
000000e0: b8cd d43e e1e6 993e b0ac 493f 1668 a63b
000000f0: 4e33 c63e e6d8 30be 60f4 803d 8838 2b3d
00000100: 75ac 083f e2c4 863e d8cb 0cbe 0532 333f
00000110: 3c59 373f 8741 283f 5855 1c3f e69d 053f
00000120: 4f8f 4a3d bd42 2dbe 57b7 aa3e 953c b2be
00000130: be13 3a3d deae 333d 67ee 033d c880 7d3e
00000140: 0f25 1e3f 60eb 16be 61b8 ff3e d2da 8e3f
00000150: 86b2 c33e 7306 333f 0ee5 f9bd 17a5 2b3f
00000160: 7283 703d 3c8f ac3e 5369 173f 1254 1d3f
00000170: 3d4a 703e 47d4 f23e 3ccb 9e3d c04e 0b3e
00000180: 4706 40be 9df6 6e3e fcf3 ef3e 2236 023f
00000190: 9559 2b3f 05fc 513f c12e 4cbe 972f 4c3c
000001a0: 5502 d83d b05f ac3e 5e85 fb3e b110 333e
000001b0: 8507 303d 96d7 c23e 6cd9 753e 0931 a43e
000001c0: 8e8a b0be 6bb0 443f f8df 99be 18a3 423e
000001d0: cf62 87be 9ee6 b7bb 2a0c adbe 5537 4abc
000001e0: 4b8c 99be f559 2bbe 659e 38bd 7a19 213f
000001f0: 0088 123c 299a 093f d130 13be f42a c7bd
00000200: 9e82 87be c2bd c83e 0831 80be 478f 003f
00000210: 1a61 77be 5ac1 7bbe 1ac0 19bf 3541 59bd
00000220: 0e1b 4abe 31a1 1e3f 7862 803f 10b7 ee3e
00000230: feb4 ae3e ac01 adbe 5fab 8fbd aa43 ea3d
00000240: 5367 a3be 147d 1f3f 4500 18be 71c2 0d3f
00000250: 7c2b bd3c 62f9 003c cd3b 8bbc fe2a 63be
00000260: 3808 383f 5894 e7bc ad20 f03e e792 69be
00000270: 4478 173f 20b0 1a3f 6889 ea3e 9e79 9a3e
00000280: dc4a 5c3f debf 71be e893 043f e782 f73d
00000290: c730 973e db86 8abd d75b 4f3e cc84 fe3e
000002a0: 97f7 0f3f 1ee7 2fbe 1aac bebe d9a8 72be
000002b0: 95d1 cf3e 4e39 a53e 7497 d6bc 7e28 f43e
000002c0: bc7f d8bd 81c1 3b3f 044f f73e f2c3 743f
000002d0: 3464 193f e787 083f 923f 10be 1e8e 72be
000002e0: 4646 c53c e189 72be 0bca 0dbe c186 72be
000002f0: 7fbf 72be 46dd 743e 62c4 f33e f57d dfbd
00000300: 5dd7 703c 1973 333f 261d 2fbd f55d ff3e
00000310: 7757 873c 4903 733f d374 05bd 37ef 0d3f
00000320: 14cc fd3e d28a 213f d48a 39bd fc1f a43d
00000330: fa41 9a3e 94ac a53e 031a 24be 52e4 acbe
00000340: 03fe 223f 6915 d93e e370 503f f59d 123f
00000350: f3b8 13be a371 fcbc ca70 343d f95f 82be
00000360: ab2e 043f 4438 043d 36b8 973e 8ca2 c0bd
00000370: 27db e33e 633b c53e 8f4b 313e cde0 7e3e
00000380: 7ffb d63e 1d11 b53e 4da3 30bf 5d20 d03c
00000390: 6fea 583e e9b7 03bf eee0 3f3e 5622 e23e
000003a0: 366d b3be 5a8d 23be c6eb dcbe 9a28 333e
000003b0: a355 79bd 7058 fd3e e1ac 30bf 8025 adbe
000003c0: 6b41 113f 897d e23e c780 593f 7ff9 443f
000003d0: 09bb 313f a05f fcbc 1486 cb3e bdfb d5be
000003e0: 05dc 553e 132e 82be a55a bd3e 3a14 16bf
000003f0: 2314 e8be 2466 a33e ce4d 55bd 6a86 733e
-0.29361603 0.5729893 -0.039757684 0.87977964 0.39092594 0.30592012 -0.41817817 0.037910108
-0.049819108 0.44154108 -0.17463107 0.4152778 0.5527524 0.3031785 0.68672025 0.42956033
0.47993723 0.42972466 -0.41976443 0.03602098 0.7340551 -0.12710607 0.5830151 0.45205534
0.45916677 0.46680418 0.31203547 -0.13923487 1.0075564 0.021071164 0.4253885 -0.25450453
0.66469514 -0.27773678 -0.04438164 0.7813138 0.5032693 -0.15595146 0.28312695 0.014691086
0.11279211 -0.21281488 -0.057241123 0.34336203 0.6078656 0.5907151 0.66229284 -0.55911523
-0.126806 0.3321695 -0.21263689 0.3995262 -0.11632022 0.07011545 -0.020913923 0.022626234
0.415632 0.3005896 0.78779125 0.005078326 0.38711017 -0.1727024 0.06296611 0.04180196
0.5338815 0.26322085 -0.13749635 0.699982 0.71620536 0.65724987 0.61067724 0.5219406
0.049453076 -0.1691999 0.33343002 -0.34811845 0.045428984 0.04386794 0.03220978 0.24756157
0.61775297 -0.14738226 0.49945357 1.1160529 0.3822214 0.69931716 -0.12201892 0.6704878
0.058719106 0.3370303 0.59145087 0.61456406 0.2346582 0.4742758 0.07753608 0.1360426
-0.18752395 0.23336263 0.46865833 0.5086385 0.66933566 0.82025176 -0.1993971 0.012462518
0.1054732 0.33666754 0.4912519 0.17486836 0.04297592 0.38055104 0.24008721 0.3206866
-0.3448071 0.7683169 -0.30053687 0.19007528 -0.26442572 -0.0056122085 -0.33798343 -0.012342294
-0.29989848 -0.16733535 -0.04507293 0.629295 0.008943558 0.53750855 -0.1437409 -0.097249895
-0.2646684 0.39207274 -0.25037408 0.50218624 -0.24158135 -0.24585477 -0.6005875 -0.053040702
-0.19736883 0.6196471 1.003005 0.4662404 0.3412246 -0.33790338 -0.07015108 0.11438687
-0.31914768 0.6230023 -0.14843853 0.5537482 0.023092024 0.0078719575 -0.016996289 -0.22184369
0.7188754 -0.028268978 0.4689993 -0.22809945 0.59167886 0.60424995 0.45807958 0.30170912
0.86051726 -0.23608348 0.5178819 0.120855145 0.29529402 -0.06764003 0.20249878 0.4971069
0.5623717 -0.17178008 -0.37240678 -0.23697223 0.40589586 0.32270283 -0.026195265 0.47687143
-0.105712384 0.7334214 0.48302472 0.9561149 0.5991852 0.5333237 -0.1408675 -0.23687026
0.02408136 -0.23685409 -0.13846605 -0.23684217 -0.23705862 0.23912534 0.47610766 -0.10912696
0.014699784 0.700975 -0.042752407 0.4987637 0.016521199 0.9492689 -0.032582115 0.5544314
0.49569762 0.6310245 -0.045298412 0.08013913 0.3012846 0.3235823 -0.16025548 -0.33767945
0.6366884 0.42399147 0.8142225 0.57272273 -0.14426021 -0.030815905 0.044052877 -0.25463846
0.5163371 0.03228022 0.2963273 -0.09406003 0.44503137 0.3852187 0.1731398 0.24890442
0.4198875 0.3536462 -0.6899918 0.025406057 0.2118318 -0.514525 0.18738148 0.4416682
-0.3504426 -0.1597189 -0.4314863 0.17495957 -0.060872685 0.49481535 -0.6901379 -0.33817673
0.56740445 0.442364 0.84962124 0.769432 0.6942602 -0.030807316 0.3975073 -0.41793624
0.20884712 -0.25425777 0.3698322 -0.58624613 -0.45327863 0.31913865 -0.052076153 0.23781744

l1.bias f4 [8]
00000000: 021a 143f 90c0 153f d764 873e 9174 723e
00000010: c194 303f 7de7 c33e e19a 213f 5263 393f
0.57852185 0.5849695 0.26444122 0.23677279 0.6897698 0.3826255 0.6312695 0.72417176

l2.weight f4 [8, 8]
00000000: d88d 013f 3548 48bf b618 ccbe db75 93be
00000010: 114c ea3f c998 603f ad65 1d3f 7ff4 053f
00000020: 6da8 c43e 539e 003f 4b56 7e3f 3407 b43d
00000030: 90b2 d73f ed92 b43f 7d6d 5d3f ee58 7cba
00000040: ea2e 8e3f 9dfb 553f f07e a73f 2573 0f3f
00000050: a05b 4cbe 3d1c 64be e18d 8abf 88e8 843f
00000060: 3c0e 963f 1d97 803f 98a5 95bc 25ad ce3f
00000070: b50e 84be c72a 9bbd 27da 523f 51a1 9bbf
00000080: 9fbe 21be 1b13 273f 4753 a33e 4f33 e23e
00000090: 3028 11bf bf62 553f a354 a73f d186 0c3d
000000a0: 71dd adbe ecf8 c93d 80ae 35bb db79 7abe
000000b0: a895 3d3d 5099 82be cc5f a9be 9e6c f7bd
000000c0: 1347 91be a8cb 62be 0644 a2bd 5e31 2f3e
000000d0: 3dbe e1b9 1bdf 153c 6507 573e d1e4 babe
000000e0: ce2b 843f f954 fd3e 69b6 5fbf 84e6 b0be
000000f0: 7618 823f c24b 90bf 2a0f 83be d1e9 7a3f
0.5060706 -0.7823518 -0.39862603 -0.28800854 1.8304464 0.8773313 0.6148327 0.52326196
0.3840975 0.50241584 0.9935042 0.087904364 1.6851368 1.4107338 0.8649519 -0.00096262887
1.1108067 0.83587056 1.3085613 0.5603507 -0.19956827 -0.22276397 -1.0824548 1.0383463
1.1723094 1.0046116 -0.018267438 1.614659 -0.2579247 -0.075765185 0.82364124 -1.2158605
-0.15795372 0.6526353 0.31899473 0.4417977 -0.56701946 0.833538 1.3072704 0.03430826
-0.3395801 0.09861931 -0.0027722418 -0.24460547 0.0462853 -0.25507593 -0.330809 -0.12081264
-0.28374538 -0.22148001 -0.07923131 0.17108676 -0.00043057083 0.009147431 0.20998915 -0.36502698
1.0325868 0.49478891 -0.8738771 -0.3455087 1.0163715 -1.127312 -0.25597507 0.98013026

l2.bias f4 [8]
00000000: 2444 b7be d6ce f8be e3e4 cbbe 540e 96bd
00000010: e8c5 963f caf3 6bbe 94e7 6cbe 4a3a 983f
-0.35794175 -0.48595303 -0.39823064 -0.073269516 1.1779146 -0.23042217 -0.23135215 1.1892788

l3.weight f4 [7, 8]
00000000: b0f0 08c0 da70 7fbe 973f 80be f663 483f
00000010: 03fa ebbc a005 2bbc 777a 153e c2f5 fabe
00000020: d540 89bf b045 ccbc 9f8a 203f 6d8f eb3d
00000030: 0ed3 89bf 0fef a83e f298 883e 7526 893e
00000040: 1df9 f1bf eed9 2bbf 200c 85bf c965 04bf
00000050: 031d 8e3f f080 363d c757 38be 5964 9b3f
00000060: e5af 583f a824 583d b555 343e 85ed 8fbf
00000070: d033 d4bf 0aef 9bbe 6d2a 8e3e 1be1 5d3f
00000080: ec80 a1bf 3443 223e dd02 4c3f a927 80bf
00000090: c789 b3bd 6067 ea3c b2ef 70be e7d8 9bbf
000000a0: ee30 bfbe 97fb 973e fe47 8ebf 376f 143f
000000b0: 4531 363e 8a96 f2bd d8e2 31be 8810 c1bf
000000c0: 26c5 0f3f 38fd 0d3f 215c 86bf 698f c7bf
000000d0: a41b aa3e d094 893d e0a4 bfbe 79d0 9fbf
-2.1396904 -0.24945393 -0.25048515 0.7827753 -0.028805738 -0.010438353 0.14597498 -0.49015623
-1.072291 -0.024935573 0.6271152 0.11501966 -1.0767534 0.32994887 0.26679188 0.26787153
-1.8904148 -0.6712941 -1.0394325 -0.5171781 1.1102604 0.044556558 -0.18002234 1.2139999
0.84643394 0.052769333 0.1761082 -1.124436 -1.6578312 -0.3045581 0.27766743 0.8667161
-1.2617469 0.15845948 0.7969187 -1.0012103 -0.08766513 0.028613746 -0.23528937 -1.2175568
-0.37342018 0.29684135 -1.111572 0.579822 0.17792232 -0.11845119 -0.1737169 -1.508317
0.561602 0.55464506 -1.0496866 -1.559064 0.33224213 0.06717837 -0.37430477 -1.2485496

l3.bias f4 [7]
00000000: a415 02bf aaad fabe c494 5c3f e13f 723e
00000010: d9d5 3e3c 85e1 89be 8169 353d
-0.5081427 -0.4896062 0.861645 0.2365718 0.011647665 -0.2692987 0.04429007
